model/stockmodel.pt (torch, 292645 bytes, 17 tensors)

lstm.weight_ih_l0 f4 [200, 1]
0	0x3c86646a	0.016405303
1	0xbbd89a41	-0.0066101854
2	0x3c760d1d	0.015017775
3	0x3dcde65f	0.100537054
4	0x3d9f7727	0.077863984
5	0xbc53f0fe	-0.012935875
6	0xbde436a9	-0.11143238
7	0x3e0852b8	0.13312805
8	0xbde4e1b2	-0.111758605
9	0xbc40832d	-0.011750025
10	0xbd87be35	-0.06628076
11	0xbdc20067	-0.09472733
12	0xbd7a5f5d	-0.0611261
13	0xbd743d51	-0.05962879
14	0xbd470cee	-0.048596315
15	0x3df1a1bd	0.11798427
16	0x3cf49f86	0.029861223
17	0xbc0aaf47	-0.008464641
18	0x3dedf86b	0.116196476
19	0xbd2ce18b	-0.042207282
20	0xbda91e98	-0.082577884
21	0x3deafa9d	0.11473582
22	0x3c472934	0.01215582
23	0x3d6a97e7	0.05727377
24	0x3d914d95	0.07094876
25	0xbcc80078	-0.024414286
26	0xbde530f3	-0.11190977
27	0x3e0ec141	0.13940908
28	0x3d08e47e	0.033421032
29	0xbd11967d	-0.035543907
30	0xbd6e5d7f	-0.058194634
31	0xbd8c3c8a	-0.068474844
32	0x3c92b970	0.01791069
33	0xbe056737	-0.13027655
34	0xbda04e03	-0.078273796
35	0x3cfcb07e	0.030845877
36	0x3deafe8a	0.11474331
37	0xbd8e3ac8	-0.069448054
38	0xbc1a5705	-0.009420161
39	0x3df16639	0.117870755
40	0xbdaad196	-0.083407566
41	0xbce07e81	-0.027404072
42	0xbd837482	-0.064187065
43	0x3c9da9e7	0.019246055
44	0xbd3aefca	-0.045638837
45	0x3d901286	0.07034783
46	0xbc5515da	-0.013005698
47	0x3da0a4a9	0.078439064
48	0xbdfe664d	-0.12421856
49	0x3d393067	0.045212176
50	0xbdf12bd7	-0.1177594
51	0x3d5f32ec	0.054491922
52	0xbc3086cd	-0.0107743265
53	0x3d5ea5e3	0.05435742
54	0x3e01a7ea	0.1266171
55	0x38d8eda0	0.00010343944
56	0x3cf1794d	0.029476786
57	0xbe0547f1	-0.13015725
58	0x3d9e9fe5	0.07745341
59	0xbd03995f	-0.032128688
60	0x3d893c86	0.06700997
61	0xbdf70fd8	-0.12063569
62	0x3da8b631	0.08237875
63	0xbe0f3b46	-0.13987455
64	0xbe017bc9	-0.12644877
65	0x3c536a96	0.01290383
66	0xbd9c64fb	-0.07636448
67	0x3d216fc4	0.03941323
68	0xbd915d45	-0.07097868
69	0xbe04e79f	-0.12978981
70	0x3dfe4690	0.124158025
71	0x3d278e42	0.040907152
72	0xbdcb4daa	-0.099269226
73	0xbd6eae83	-0.058271896
74	0xbb0cf213	-0.0021506592
75	0x3d518ce9	0.051159773
76	0xbdec3142	-0.11532833
77	0x3d5d0081	0.05395556
78	0xbb88f9d4	-0.0041801725
79	0x3dd89f8c	0.10577306
80	0xbd4799d7	-0.048730697
81	0x3df28197	0.118411236
82	0xbdbc06fa	-0.09181018
83	0x3d023400	0.031787872
84	0xbded8168	-0.11596948
85	0x3c8e8381	0.01739669
86	0x3d9428c2	0.072343364
87	0x3d56c065	0.052429575
88	0xbdd1868a	-0.102307394
89	0xbdeeadec	-0.11654267
90	0xbdf3d95d	-0.11906693
91	0xbd5aae29	-0.05338875
92	0x3dce202c	0.1006473
93	0x3e0812eb	0.13288467
94	0xbd47320d	-0.048631717
95	0xbcf9cd93	-0.030493533
96	0x3d28ba0c	0.041193053
97	0xbda21e67	-0.07915955
98	0x3d243963	0.04009379
99	0xbcd3ea3e	-0.025868531
100	0x3d8fb79f	0.07017445
101	0x3de03217	0.10947054
102	0xbdce5708	-0.10075194
103	0xbdf0d6f5	-0.1175975
104	0x3da66134	0.08124009
105	0x3de086b4	0.109631926
106	0x3c8f89f7	0.017521841
107	0xbdfd1397	-0.12357252
108	0xbca5c923	-0.020237511
109	0xbe0582ee	-0.13038227
110	0xbca96bde	-0.020681318
111	0xbe0776ca	-0.13228908
112	0x3e096c3a	0.13420191
113	0xbdad9d2e	-0.08477245
114	0x3ddf5529	0.10904915
115	0x3dddb13c	0.108248204
116	0xbdb7ed1c	-0.08980772
117	0xbd7fdcab	-0.062466305
118	0x3e033a86	0.12815294
119	0x3e05b496	0.1305717
120	0xbde1c92e	-0.110247
121	0xbda56390	-0.08075631
122	0xbe130e94	-0.1436103
123	0x3d846a5a	0.064655975
124	0xbe06ab0c	-0.13151187
125	0xbdc72e2f	-0.09725606
126	0xbdb719ff	-0.08940505
127	0xbdf7dd9c	-0.121028155
128	0xbb9841c7	-0.004646513
129	0xbe0cae0a	-0.13738266
130	0xbdef5144	-0.11685422
131	0x3d9c5663	0.076336645
132	0xbc811bd7	-0.015760345
133	0x3d50f7a4	0.05101742
134	0x3ddb60e1	0.107118376
135	0x3c595bbb	0.013266499
136	0x3dcf46b3	0.10120907
137	0xbd034a43	-0.032053243
138	0xbd6617bd	-0.056174982
139	0x3d48ff1e	0.049071424
140	0x3d2f92ed	0.04286473
141	0xbd682369	-0.056674395
142	0x3bdb44c2	0.006691546
143	0xbde206d7	-0.11036461
144	0xbd31bdb8	-0.04339382
145	0x3da4e0be	0.08050679
146	0x3d216f02	0.039412506
147	0x3e045d8f	0.12926315
148	0xbe0796de	-0.13241145
149	0xbe0ba72d	-0.13637991
150	0x3dde9a3e	0.10869263
151	0x3ddbc9f6	0.1073188
152	0xbdc651b8	-0.09683555
153	0xbc133f0e	-0.008987201
154	0x3ba646d4	0.0050743613
155	0xbda234b3	-0.07920208
156	0x3cdf752e	0.027277555
157	0xbe00c5b5	-0.12575419
158	0x3de3e9f6	0.11128609
159	0x3de1c4e0	0.11023879
160	0x3d23740c	0.039905593
161	0x3e050191	0.12988879
162	0x3d3b1e96	0.045683466
163	0x3cadcaea	0.021214921
164	0x3e0c9ef4	0.13732511
165	0x3d6b3a17	0.057428446
166	0x3dffddcd	0.12493477
167	0x3dde5ddb	0.10857745
168	0xbda952e9	-0.08267767
169	0x3da477bf	0.08030652
170	0x3d384f4d	0.044997502
171	0x3d730c4b	0.059337895
172	0x3d42d007	0.04756167
173	0x3c6d7dc0	0.014495313
174	0xbd328973	-0.043588113
175	0xbdf8311e	-0.12118743
176	0x3be2bcd5	0.006919483
177	0xbdef6b76	-0.116904184
178	0x3e095eca	0.13415065
179	0x3db2361d	0.087017275
180	0x3c82cb12	0.015965972
181	0x3c4d2a39	0.012522274
182	0xbc8a92b9	-0.016915666
183	0xbc2ad5eb	-0.010426979
184	0xbd1893cb	-0.03725032
185	0xbd0aec1d	-0.03391658
186	0xbcbf2d87	-0.023337139
187	0x3d2171d5	0.0394152
188	0x3e07f964	0.13278729
189	0x3d433388	0.047656566
190	0xbdc74132	-0.09729232
191	0x3e080143	0.13281731
192	0xbdca3930	-0.09874189
193	0xbd074b04	-0.033030525
194	0xbd4f5d64	-0.050626174
195	0xbe0163c4	-0.12635714
196	0xbe04171a	-0.12899438
197	0xbcacf721	-0.021113934
198	0x3d88603c	0.0665898
199	0xbdd4e016	-0.103943035

lstm.weight_hh_l0 f4 [200, 50]
0	0xbc02cf96	-0.007984063
1	0xbd934b57	-0.07192104
2	0xbd788897	-0.060677137
3	0x3e08bca2	0.13353208
4	0x3dab7d43	0.08373501
5	0xbe052a63	-0.1300445
6	0x3df88472	0.12134637
7	0x3b19b524	0.0023453915
8	0x3ceb113f	0.028694747
9	0x3c15c7a8	0.00914184
10	0xbc0313f1	-0.00800036
11	0xbca7d108	-0.020485416
12	0x3d9d4ecb	0.07681044
13	0xbd8eceac	-0.06973013
14	0x3d04ba22	0.032404073
15	0x3ddbb971	0.107287295
16	0xbd32396a	-0.043511786
17	0x3df52bfa	0.119712785
18	0xbdb33873	-0.08751001
19	0x3d0a6539	0.03378794
20	0xbd943c46	-0.07238059
21	0x3ca034a6	0.019556355
22	0x3cafd8ac	0.021465622
23	0xbc99482d	-0.018711174
24	0x3db3b9ea	0.08775695
25	0xbe0a5ddd	-0.13512369
26	0x3cdbc958	0.026829407
27	0xbc7cb734	-0.015424538
28	0x3d177510	0.036976874
29	0x3dd975ea	0.106181934
30	0x3ba2c43b	0.00496724
31	0xbd00edaa	-0.031476654
32	0xbe11e9f9	-0.1424941
33	0xbd502965	-0.050820727
34	0xbdcc622f	-0.099796645
35	0x3df81c8e	0.121148214
36	0x3d7ee572	0.062230535
37	0xbdb6efda	-0.08932467
38	0xbe165277	-0.14679895
39	0xb9db0028	-0.00041771051
40	0xbdafd5da	-0.08585711
41	0x3d3b147f	0.045673843
42	0x3db73249	0.08945138
43	0xbce16869	-0.027515607
44	0x3dd88c41	0.10573626
45	0x3c1e9524	0.009679113
46	0xbddae940	-0.1068902
47	0xbd1f8751	-0.038947407
48	0x3d2437fc	0.040092453
49	0x3d1cff9a	0.0383297
50	0x3dc778d9	0.09739847
51	0xbcdd8103	-0.027039057
52	0x3d9a7eb4	0.07543698
53	0xbe02f694	-0.12789375
54	0x3b7e959f	0.0038846505
55	0xbdaaa35e	-0.08331941
56	0x3dfea613	0.1243402
57	0x3cf6f33c	0.03014528
58	0xbe076f52	-0.13226059
59	0x3e039d9a	0.12853089
60	0x3df7dbcc	0.1210247
61	0x3dc432d5	0.09580008
62	0xbe02f494	-0.12788612
63	0x3dde924e	0.10867749
64	0x3d40beb4	0.04705687
65	0x3d199aa8	0.037501007
66	0xbdce00fd	-0.10058782
67	0xbd9e372f	-0.07725369
68	0xbdc836f5	-0.09776107
69	0x3b5e7e6c	0.0033949865
70	0xbd2fe1e3	-0.04294003
71	0xbc8f7d50	-0.017515808
72	0x3d9d6445	0.076851405
73	0x3db910eb	0.0903643
74	0xbbe73f07	-0.007057074
75	0xbda78214	-0.08179107
76	0xbd87a1e2	-0.066226736
77	0x3dd85761	0.10563541
78	0x3cca625a	0.0247051
79	0xbdc0cd1c	-0.094141215
80	0x3c073a48	0.008253641
81	0x3c909bee	0.017652478
82	0xbdb148a1	-0.08656431
83	0x3d8be2ce	0.06830369
84	0x3da4793b	0.080309354
85	0x3d5ac779	0.05341289
86	0xbdab77b4	-0.08372441
87	0xbd537739	-0.05162737
88	0xbcae7fee	-0.021301236
89	0xba323d92	-0.0006799336
90	0xbb168e1e	-0.0022972892
91	0x3cbbc6bd	0.022921914
92	0x3d731a61	0.05935133
93	0xbd215fba	-0.039397933
94	0xbdc161c4	-0.094424754
95	0x3d668783	0.056281578
96	0xbd9447ee	-0.07240282
97	0x3d11e3d7	0.035617676
98	0xbdbfbee5	-0.09362582
99	0x3dff8800	0.12477112
100	0x3e09c11e	0.13452575
101	0x3dc28ab4	0.09499112
102	0x3cad817a	0.021179903
103	0xbd39a2a5	-0.045321126
104	0x3dc63f6d	0.09680066
105	0xbd8fd5b3	-0.07023182
106	0xbe0c01ee	-0.13672611
107	0xbdc3eab2	-0.09566249
108	0xbddc71ed	-0.10763917
109	0xbd701005	-0.058609027
110	0x3dedc622	0.116100565
111	0x3d31ff9c	0.04345666
112	0x3dffa51e	0.124826655
113	0xbd9824c9	-0.07428891
114	0x3d82c248	0.063847125
115	0xbcbb3f16	-0.02285723
116	0x3cc124cd	0.023577118
117	0x3dd07632	0.10178794
118	0x3d4d0242	0.05005098
119	0x3e030e20	0.12798357
120	0xbcc52e72	-0.024069998
121	0x3d84287c	0.06453034
122	0x3e17c7bb	0.14822285
123	0xba9ae956	-0.0011818807
124	0x3d13445f	0.035953876
125	0xbdef9dd8	-0.11700028
126	0x3d9276b1	0.07151545
127	0xbbf8e633	-0.0075958013
128	0xbdbeb475	-0.09311763
129	0x3d15e305	0.036593456
130	0x3ddfec22	0.10933711
131	0xbdf145f8	-0.117809236
132	0xbcd33f4b	-0.025787016
133	0x3d8800f6	0.06640808
134	0xbda355a9	-0.07975323
135	0xbdeca4f5	-0.115549006
136	0xbe087053	-0.13324098
137	0xbd2e8591	-0.042607848
138	0x3db0e791	0.08637918
139	0x3d93eb0a	0.072225645
140	0xbd5ae09b	-0.053436857
141	0xbe0c85f6	-0.13722977
142	0x3cc40fc2	0.023933295
143	0x3d3f473d	0.046698797
144	0x3d89781b	0.067123614
145	0xbda171a9	-0.07883007
146	0x3dc62800	0.09675598
147	0x3d69fc1c	0.057125196
148	0xbbd2898a	-0.0064250873
149	0x3d4ee944	0.05051543
150	0x3df9c537	0.12195819
151	0x3de8aad7	0.1136071
152	0x3c741c1b	0.014899279
153	0x3ac84a07	0.0015280851
154	0x3e0384ae	0.12843582
155	0xbd9a8a9c	-0.07545969
156	0xbde86b69	-0.11348612
157	0x3df36b1d	0.118856646
158	0x3dd406c3	0.10352852
159	0x3d004744	0.031317964
160	0xbd80ccd0	-0.06289065
161	0x3c851cb3	0.016249036
162	0x3b17bdcd	0.0023153902
163	0xbe05e4d6	-0.13075575
164	0xbd6fe554	-0.058568314
165	0x3d62cc32	0.055370517
166	0xbe01cbc0	-0.1267538
167	0xbd483bd7	-0.048885193
168	0xbd329441	-0.043598417
169	0x3d0cd41f	0.034381982
170	0x3d8fbd2f	0.07018506
171	0xbe01f3d8	-0.12690675
172	0xbdd58907	-0.104265265
173	0xbd596b89	-0.05308107
174	0x3c225748	0.009908505
175	0xbcf22b4f	-0.029561667
176	0xbe03f71f	-0.12887238
177	0x3dbf9d5c	0.09356186
178	0x3cd0d444	0.025491841
179	0xbd8ae3fe	-0.06781767
180	0xbe047016	-0.12933382
181	0xbe0c2605	-0.13686378
182	0xbe09a775	-0.13442786
183	0x3db8dc97	0.09026449
184	0x3dca97e8	0.09892255
185	0x3d955931	0.072924025
186	0xbc326f8e	-0.0108908545
187	0xbc8e221b	-0.017350247
188	0xbcf4455f	-0.029818235
189	0x3d0101b9	0.031495783
190	0x3dbbd36b	0.09171184
191	0x3d9bf835	0.07615701
192	0xbde5c16d	-0.11218534
193	0x3df7b634	0.12095299
194	0xbdbc2431	-0.091865905
195	0x3d13ff58	0.036132187
196	0xbc0dd0a6	-0.008655703
197	0xbdcbedcb	-0.09957465
198	0x3e0e0470	0.1386888
199	0x3def951c	0.11698362
200	0xbdab859f	-0.083750956
201	0xbdeb7a85	-0.11497978
202	0xbdbcff90	-0.09228432
203	0xbdff43c7	-0.124640994
204	0x3db6f8df	0.08934187
205	0xbdb7f571	-0.08982361
206	0xbd33d310	-0.043902457
207	0x3ddf73c5	0.10910753
208	0x3bb1cdf5	0.0054261633
209	0x3c577bea	0.013152102
210	0xbcdf7149	-0.027275698
211	0xbda5d87b	-0.08097931
212	0xbd6aa918	-0.057290167
213	0x3d908f0c	0.07058534
214	0xbdf9fb07	-0.12206083
215	0x3def266b	0.116772495
216	0x3c771786	0.015081292
217	0x3d24f650	0.040273964
218	0x3e0349bd	0.12821098
219	0x3ce61582	0.028086428
220	0xbe0045a4	-0.12526566
221	0x3deb9811	0.11503614
222	0xbdfc9b4d	-0.12334309
223	0xbba57831	-0.0050497283
224	0xbd9e7ec3	-0.07739022
225	0xbdc29cf4	-0.09502593
226	0x3dd57038	0.10421795
227	0xbe0b1b13	-0.13584547
228	0x3b9161de	0.0044367155
229	0x3c6b4c8f	0.014361515
230	0x3dad803e	0.08471726
231	0xbd82a915	-0.06379906
232	0xbdb6a22d	-0.08917651
233	0x3df93a2b	0.12169298
234	0xbdf43553	-0.11924233
235	0xbe05e39f	-0.13075112
236	0xbce7f9d8	-0.028317377
237	0x3d1930a7	0.037399914
238	0x3dd56812	0.104202405
239	0x3dc5d75a	0.09660216
240	0xbce7ae48	-0.028281346
241	0x3d36a6cb	0.04459266
242	0xbddd1c96	-0.10796468
243	0x3dd208cc	0.10255584
244	0x3d391303	0.045184147
245	0xbd5704c1	-0.052494768
246	0x3dd4f978	0.10399145
247	0x3db2187a	0.08696075
248	0x3d391c77	0.04519316
249	0x3d43937e	0.04774808
250	0x3b30eac2	0.0026995395
251	0x3d59312b	0.053025406
252	0xbc9225a2	-0.01784021
253	0xbdc4c81b	-0.096084796
254	0xbdafbeb5	-0.08581296
255	0x3e0d13b7	0.13777052

lstm.bias_ih_l0 f4 [200]
0	0xbb1b0005	-0.0023651135
1	0xbd5fc7ef	-0.05463403
2	0x3d960938	0.07325977
3	0xbdb04811	-0.086074956
4	0xbdf040b0	-0.11731088
5	0xbda4cb9e	-0.080466494
6	0x3e0238c5	0.12716968
7	0xbce12bc6	-0.027486693
8	0x3de8fa32	0.11375846
9	0x3e0ca71c	0.13735622
10	0x3e037a7b	0.12839691
11	0xbcc9200f	-0.02455142
12	0x3dbeb96a	0.09312709
13	0xbe1100db	-0.14160483
14	0xbd340fdd	-0.04396044
15	0xbe07b2f7	-0.13251863
16	0x3d1f4c9a	0.038891412
17	0xbdd5b6fc	-0.10435292
18	0x3dc6a799	0.096999355
19	0xbd5db396	-0.054126345
20	0x3d4a8a7d	0.04944848
21	0xbc8c2848	-0.017109051
22	0xbdfc94a3	-0.12333038
23	0xbd582626	-0.052770756
24	0xbdfb404b	-0.12268122
25	0xbc5d2d99	-0.013499641
26	0xbe020e37	-0.12700735
27	0xbdcb96f6	-0.09940903
28	0xbd836f24	-0.06417683
29	0x3dfa5b59	0.122244544
30	0xbdb69af6	-0.08916275
31	0xbd7d17d6	-0.06179031
32	0xbd40a1a2	-0.047029145
33	0xbcba5fed	-0.02275082
34	0xbdbd5111	-0.09243978
35	0xbc434278	-0.011917703
36	0x3d46a2e9	0.048495207
37	0xbb610fc2	-0.0034341668
38	0x3d6a85e9	0.057256613
39	0xbbcc941f	-0.0062432433
40	0x3da9e4f4	0.082956225
41	0x3e07367c	0.13204378
42	0xbdf1a5e5	-0.1179922
43	0xbe0e6f39	-0.13909616
44	0xbd3b4c15	-0.045726854
45	0xbddd5633	-0.10807457
46	0x3e050242	0.12989143
47	0x3da849da	0.08217211
48	0xbd288d09	-0.041150127
49	0x3dbf287f	0.09333896
50	0xbd50173f	-0.05080342
51	0xbd300a07	-0.042978313
52	0x3dfcfbc6	0.123527095
53	0x3c8b987a	0.01704048
54	0xbd89d694	-0.06730381
55	0xbd58a7b4	-0.05289431
56	0x3b055a9c	0.0020348197
57	0x3db29037	0.08718913
58	0x3e09f170	0.13471007
59	0x3c7665b9	0.015038901
60	0xbdd8f466	-0.1059349
61	0xbcd17b6a	-0.025571544
62	0x3d9c7644	0.07639745
63	0x3cde8344	0.027162202
64	0x3d65e880	0.056129932
65	0x3d880cb2	0.066430464
66	0x3dddf721	0.10838152
67	0x3cd25f24	0.025680132
68	0x3daf87be	0.08570813
69	0x3c3be432	0.01146798
70	0xbde1154a	-0.10990389
71	0xbd44850b	-0.047978442
72	0x3dedd3f4	0.116126925
73	0x3e028a2b	0.1274802
74	0xbb93833e	-0.0045017293
75	0xbcb674bd	-0.022272462
76	0x3e05b3e4	0.13056904
77	0x3dc79279	0.09744734
78	0xbc85e24a	-0.016343255
79	0xbe0da958	-0.13834131
80	0xbd7bb64f	-0.06145316
81	0xbbcc04e1	-0.0062261675
82	0xbdff965d	-0.124798514
83	0x3b2a3b66	0.0025975346
84	0xbd9f7a63	-0.07787015
85	0xbd886948	-0.06660706
86	0x3e04c3ce	0.12965319
87	0x3dfbddb9	0.122981496
88	0x3dd94b11	0.10610021
89	0x3c8c31a8	0.017113522
90	0x3c446b26	0.011988437
91	0xbd53587e	-0.051598065
92	0xbc9e8915	-0.019352475
93	0xbe0c2775	-0.13686927
94	0x3def362a	0.11680253
95	0x3c9199ae	0.017773475
96	0xbc9a7ae5	-0.018857429
97	0x3d66bd3b	0.056332808
98	0xbdfa1e0b	-0.122127615
99	0x3e12ca60	0.14335012
100	0x3d9a235c	0.075262755
101	0xba819336	-0.0009885791
102	0x3c145102	0.009052517
103	0xbdcc1b3e	-0.099661335
104	0xbd827b19	-0.06371135
105	0x3e0aec96	0.13566813
106	0xbdfd2369	-0.123602696
107	0xbdcee56c	-0.101023525
108	0x3d915cbb	0.07097765
109	0x3da7d13b	0.081942044
110	0xbbbd2aac	-0.005772909
111	0x3d3271fc	0.043565735
112	0x3dd3e253	0.10345902
113	0xbda4868e	-0.08033477
114	0xbd55ef93	-0.05223043
115	0xbb83c3d7	-0.0040211487
116	0xbd2f1c79	-0.042751763
117	0xbe160abc	-0.14652532
118	0xbddf2cb5	-0.10897199
119	0x3d428b75	0.047496278
120	0x3c9d0f15	0.01917223
121	0x3cc2a599	0.023760604
122	0x3e06b042	0.13153175
123	0xbd859b0e	-0.06523715
124	0xbc99b43e	-0.018762704
125	0x3c00c82a	0.007860223
126	0xbd2fb969	-0.04290143
127	0xbd005fcd	-0.031341363
128	0x3e0e3f8b	0.13891427
129	0xbe00becc	-0.12572783
130	0x3cf5741e	0.029962596
131	0xbd789420	-0.060688138
132	0x3d97cb72	0.07411851
133	0x3dad50a0	0.084626436
134	0x3d4665b4	0.048436835
135	0x3e0681f8	0.13135517
136	0x3e0f42f3	0.13990383
137	0x3ba299a0	0.004962161
138	0x3de97dec	0.11400971
139	0x3dbfaecc	0.09359512
140	0xbd45e44f	-0.048313435
141	0xbd2c0f9a	-0.042007066
142	0xbdf2a49e	-0.118478045
143	0x3d9b8be2	0.0759504
144	0xbdf92420	-0.121650934
145	0x3e089abd	0.13340278
146	0x3e146b30	0.14494014
147	0xbdcaf1c1	-0.09909392
148	0x3d30d299	0.04316959
149	0xbdf9d45e	-0.12198709
150	0xbd0e98b7	-0.03481361
151	0xbdcbab9f	-0.099448435
152	0x3bd0aad2	0.0063680196
153	0xbd7951f8	-0.060869187
154	0xbd4a4666	-0.049383543
155	0xbc50149d	-0.012700227
156	0x3db71b25	0.08940724
157	0x3d83651b	0.06415769
158	0xbcee8059	-0.029113935
159	0x3d61e1bd	0.05514692
160	0xbd83db51	-0.06438316
161	0xbcc453cd	-0.02396574
162	0xbe11ce66	-0.14238891
163	0xbdfdb832	-0.12388648
164	0xbdbbc4ff	-0.091684334
165	0x3d637df7	0.05554005
166	0xbd36cd70	-0.044629514
167	0x3d86b0ec	0.06576714
168	0xbca71b69	-0.020398812
169	0x3ca9db55	0.020734468
170	0x3c77fef8	0.015136473
171	0xbd6787f5	-0.056526143
172	0x3d426fa8	0.047469765
173	0xbd6d5227	-0.057939675
174	0xbe0ef533	-0.13960724
175	0xbdd82aaf	-0.10555016
176	0x3d979e1e	0.07403205
177	0x3cdbf9a7	0.026852442
178	0xbc8e1b4a	-0.017346997
179	0xbdc1d88d	-0.09465132
180	0xbcb87b42	-0.022519711
181	0x3df2a367	0.11847573
182	0x3d07c403	0.033145916
183	0xbe07882e	-0.13235542
184	0x3cee65d4	0.02910129
185	0x3d931109	0.071809836
186	0xbe016d99	-0.12639464
187	0x3dd868da	0.10566874
188	0xbdecc32d	-0.11560664
189	0xbdefe28c	-0.11713132
190	0xbd918ced	-0.071069576
191	0xbc9866da	-0.018603731
192	0xbcc0bff6	-0.023529034
193	0xbc918c10	-0.017766982
194	0x3d002f39	0.031295035
195	0xbcaa5aec	-0.020795308
196	0x3e058fdd	0.1304316
197	0x3df3fe2e	0.11913715
198	0x3df490df	0.119416945
199	0x3d9c6fa5	0.07638482

lstm.bias_hh_l0 f4 [200]
0	0xbdb59358	-0.08865994
1	0x3d6671ad	0.056260753
2	0xbdd67594	-0.10471645
3	0x3e120a0f	0.1426165
4	0x3d98cabe	0.07460545
5	0xbd45f46e	-0.04832881
6	0xbdda0398	-0.10645217
7	0xbdce3bad	-0.10069976
8	0xbc3c6c68	-0.011500455
9	0x3d437c40	0.047725916
10	0x3d2d5250	0.042314827
11	0x3c9b8c91	0.018987926
12	0xbdcf80d5	-0.10131995
13	0x3da8f9c2	0.082507625
14	0x3c79468f	0.015214576
15	0xbdaa6549	-0.083201
16	0x3d786e72	0.060652204
17	0x3e11c201	0.14234163
18	0x3d8f3024	0.06991604
19	0x3debe8ea	0.11519034
20	0x3d8463b4	0.06464329
21	0xbdd4e35a	-0.10394926
22	0xbdcd0eff	-0.10012626
23	0x3de27981	0.11058331
24	0x3d929050	0.07156432
25	0x3db2cb0e	0.08730136
26	0x3dd89b50	0.105764985
27	0xbdb44c36	-0.088035986
28	0xbdae7d44	-0.08519986
29	0x3dde29f5	0.108478464
30	0x3db9ea74	0.090779215
31	0xbdc91bf7	-0.09819787
32	0xbdd7e77f	-0.10542201
33	0x3d80d107	0.06289869
34	0x3dfeb642	0.12437107
35	0x3c898284	0.016785868
36	0x3cde91e1	0.02716917
37	0xbdbea624	-0.093090326
38	0x3e0db27d	0.13837619
39	0x3d8265d3	0.06367078
40	0x3db998ca	0.09062345
41	0xbc8d1147	-0.017220153
42	0xbd2a0e3e	-0.04151749
43	0x3d8df08b	0.069306456
44	0xbc3bda11	-0.011465565
45	0xbc7bf8ca	-0.01537914
46	0x3df11c01	0.117729194
47	0xbdabdd8e	-0.083918676
48	0xbd2a3e62	-0.0415634
49	0xbd35ad37	-0.044354644
50	0x3d8553d1	0.06510127
51	0xbcaf46f5	-0.02139614
52	0x3cc2267b	0.02369999
53	0xbd685e4e	-0.05673056
54	0x3cef36ce	0.029200938
55	0xbd6204f9	-0.055180524
56	0xbdeabf78	-0.11462301
57	0xbc20076a	-0.009767393
58	0xbcfd6356	-0.030931156
59	0xbdffa703	-0.12483027
60	0x3d7c5b20	0.06161034
61	0x3d12473f	0.035712477
62	0x3d97dcb4	0.07415143
63	0x3cc1500e	0.023597743
64	0x3d918e9c	0.07107279
65	0xbdd54fd6	-0.10415618
66	0xbbc12e81	-0.0058954363
67	0xbc178dbe	-0.009250103
68	0x3cf95d20	0.030439913
69	0x3da9c22a	0.08288987
70	0xbd498c70	-0.049206197
71	0xbd270576	-0.040776692
72	0x3ccf0588	0.025271192
73	0x3d926b1f	0.07149338
74	0x3bd18dba	0.006395069
75	0xbd60a393	-0.054843497
76	0x3ccb810c	0.024841808
77	0x3c050799	0.008119487
78	0x3e0ba39d	0.13636632
79	0xbd33c236	-0.043886386
80	0x3dd53792	0.1041099
81	0xbda23686	-0.07920556
82	0xbdd39fb7	-0.103331976
83	0x3cf2acdf	0.029623447
84	0x3e046a30	0.12931132
85	0x3c242794	0.010019202
86	0x3dd41136	0.10354845
87	0x3dff7d3d	0.12475059
88	0xbd9b5f4f	-0.07586538
89	0x3d521871	0.05129284
90	0x3d8bfa29	0.06834824
91	0x3dc92cef	0.098230235
92	0x3e015a3a	0.12632075
93	0x3d96011b	0.073244296
94	0xbdff450c	-0.124643415
95	0x3db7828b	0.08960446
96	0xbb7eeee4	-0.0038899714
97	0xbdc88c4c	-0.097923845
98	0xbd90c5ed	-0.07069001
99	0x3db957e1	0.09049965
100	0x3dedc719	0.116102405
101	0x3d144b1e	0.03620445
102	0x3c9c17f1	0.019054385
103	0x3da695cf	0.081340425
104	0xbdc27b9c	-0.09496233
105	0xbdd42a78	-0.10359663
106	0xbc8aa76f	-0.016925542
107	0x3d88e5b0	0.066844344
108	0x3da9654d	0.08271275
109	0xbcab4212	-0.020905528
110	0x3e012325	0.12611063
111	0x3b0bf560	0.0021355972
112	0x3de22bef	0.11043536
113	0x3dc64edb	0.09683009
114	0xbda733f1	-0.08164204
115	0x3d7585e3	0.059942137
116	0xbdb40b96	-0.08791272
117	0x3de32d2f	0.110926025
118	0xbdfc4de3	-0.12319543
119	0x3da9c459	0.082894035
120	0xbd444fa6	-0.04792752
121	0x3cc0fb76	0.023557406
122	0x3c0722f5	0.0082480805
123	0x3daa9635	0.08329431
124	0xbe03380d	-0.1281435
125	0x3c86473a	0.016391385
126	0xbd83507e	-0.06411837
127	0x3dbf15fd	0.09330366
128	0xbdd99c17	-0.10625475
129	0xbd0da310	-0.034579337
130	0xbdad136a	-0.084509686
131	0x3d2f47ac	0.04279296
132	0x3df8939e	0.12137531
133	0xbc26a1d4	-0.010170419
134	0xbdd4f7d0	-0.10398829
135	0xbe0fb13d	-0.14032455
136	0x3d05bb6d	0.032649446
137	0xbda7ec73	-0.08199396
138	0xbd881125	-0.06643895
139	0x3c0abae3	0.008467409
140	0x3d8ab61e	0.06773017
141	0xbccfcf98	-0.025367543
142	0xbe1a5bcc	-0.1507408
143	0x3d875e71	0.0660981
144	0x3cc3a329	0.023881512
145	0x3de99bd1	0.11406673
146	0x3dfb3417	0.12265795
147	0xbc8987ba	-0.016788352
148	0x3dbe16dd	0.092817046
149	0xbd44a850	-0.048012078
150	0x3c21c4e1	0.0098736
151	0x3cf58f6c	0.029975615
152	0x3db50ec4	0.08840707
153	0x3e084c40	0.13310337
154	0xbbd0d84b	-0.0063734404
155	0xbb2ea6f0	-0.0026649795
156	0x3d995ed9	0.07488794
157	0x3d9548f4	0.07289305
158	0xbd9c6684	-0.07636741
159	0xbd7b5a39	-0.06136534
160	0x3c9337e0	0.01797098
161	0xbdb35da5	-0.08758096
162	0x3d28dbd7	0.04122528
163	0x3dac4336	0.08411257
164	0xbe00d45c	-0.12581009
165	0x3e0e7850	0.13913083
166	0x3d86abe1	0.06575752
167	0x3d83132a	0.0640014
168	0x3d74d577	0.05977389
169	0x3c1e83e6	0.009675002
170	0x3dddab88	0.108237326
171	0x3d0439c0	0.032281637
172	0x3d2c32d4	0.04204066
173	0xbe0c53d6	-0.13703856
174	0xbdeaf918	-0.11473292
175	0xbe002f95	-0.12518151
176	0xbd99cd9e	-0.075099215
177	0x3df421a7	0.11920481
178	0x3de94af3	0.113912486
179	0xbc3f7d3d	-0.011687574
180	0xbd7d3269	-0.061815653
181	0xbe037e3c	-0.12841123
182	0x3d63413a	0.055482127
183	0xbbf264bf	-0.007397264
184	0xbd8c4bd4	-0.068504006
185	0x3da65c96	0.08123128
186	0x3c919a4c	0.01777377
187	0xbd60d1ab	-0.054887455
188	0xbdbc4a59	-0.09193868
189	0x3d9bfdb5	0.0761675
190	0xbbdc1245	-0.006716045
191	0xbd24dd5e	-0.040250175
192	0x3e04e494	0.1297782
193	0x3de31c1c	0.11089346
194	0x3d85e349	0.06537492
195	0xbde93355	-0.11386744
196	0x3dbf0621	0.09327341
197	0x3d1c92eb	0.03822605
198	0x3c8de38d	0.017320419
199	0x3dc5f8e3	0.09666612

lstm.weight_ih_l1 f4 [200, 50]
0	0x3cb2f53d	0.021845454
1	0x3c87bf9e	0.016570862
2	0x3dfc3d3b	0.12316366
3	0xbdb2c6c3	-0.08729317
4	0x3dbaa7b7	0.0911402
5	0x3d9b81da	0.075931266
6	0x3b8fb423	0.0043854876
7	0xbdec6efc	-0.11544606
8	0x3d6cc39c	0.057803735
9	0x3e05cba5	0.13065965
10	0xbd316a65	-0.043314356
11	0x3e06718b	0.1312925
12	0xbd421816	-0.04738625
13	0xbde42af3	-0.111410044
14	0x3ddacc1b	0.10683461
15	0x3cced3ab	0.025247416
16	0xbc9088da	-0.01764338
17	0x3e0171dd	0.12641092
18	0xbc99a7ae	-0.018756714
19	0xbdf4ff9e	-0.119628176
20	0x3d24a848	0.040199548
21	0xbdf3636f	-0.118842
22	0xbd42c162	-0.047547705
23	0xbd9cffb4	-0.07665959
24	0xbdd87061	-0.105683096
25	0x3db39ea4	0.08770493
26	0xbd953582	-0.072855964
27	0xbb783d60	-0.003787838
28	0x3de8a702	0.11359979
29	0x3e073329	0.1320311
30	0x3daf494d	0.08558903
31	0xbe102539	-0.140767
32	0x3ce5055a	0.027956653
33	0x3d473f1d	0.048644174
34	0x3dd8952f	0.105753295
35	0xbc1ed796	-0.009694954
36	0x3d436112	0.047699995
37	0xbe05063e	-0.12990662
38	0x3e08cfb3	0.13360481
39	0xbd8fd8cd	-0.07023773
40	0x3cd1147c	0.025522463
41	0x3d80912f	0.062776916
42	0xbd93fac3	-0.072255634
43	0x3cf9d3fb	0.030496588
44	0x3d983691	0.07432283
45	0x3dc67d68	0.09691888
46	0x3deb14d3	0.11478581
47	0x3c414614	0.011796493
48	0x3e067587	0.1313077
49	0x3dfdb4a2	0.123879686
50	0xbc0ee479	-0.008721464
51	0x3bde95a9	0.006792743
52	0x3d681d2d	0.05666845
53	0xbd870910	-0.065935254
54	0x3d1bae67	0.03800812
55	0x3e18e866	0.14932403
56	0x3d9b2e53	0.07577195
57	0x3d05b01c	0.032638654
58	0x3dc20acd	0.09474716
59	0xbd028eac	-0.031874344
60	0x3d999343	0.07498791
61	0x3e0379b0	0.12839389
62	0xbdc1f185	-0.09469894
63	0x3c738230	0.014862582
64	0x3d4b7ac3	0.04967762
65	0x3dd8a6e2	0.10578705
66	0x3d8803b6	0.06641333
67	0xbdc7b898	-0.09752005
68	0xbde9eeae	-0.11422478
69	0xbd0d4038	-0.034485072
70	0x3db2f8c5	0.08738855
71	0x3d9dbc3e	0.0770192
72	0x3df4fbc0	0.1196208
73	0x3e0f121d	0.13971753
74	0xbe010778	-0.12600505
75	0xbd49e14f	-0.049287137
76	0xbd37d131	-0.044877235
77	0xbe06db91	-0.13169695
78	0xbd6334f8	-0.055470437
79	0x3d3c6df5	0.0460033
80	0x3dc6c0c7	0.09704738
81	0xbd5ee4c7	-0.054417398
82	0xbc74c59f	-0.014939695
83	0x3d9219ce	0.07133828
84	0x3e04496c	0.12918633
85	0xbde19069	-0.11013872
86	0x3c39c0c1	0.01133746
87	0xbe122b2e	-0.14274284
88	0xbd5ba0b6	-0.053620063
89	0xbc1f15e5	-0.00970981
90	0x3d9fe071	0.07806481
91	0x3d937efa	0.07201953
92	0xbdd393b3	-0.10330906
93	0x3de3f5c2	0.11130859
94	0x3cf44ca2	0.029821698
95	0x3db46029	0.088074036
96	0x3cc0908f	0.02350643
97	0x3de14627	0.109997086
98	0x3de83f01	0.11340142
99	0xbd587eca	-0.05285529
100	0x3d63c821	0.05561078
101	0xbdcc245d	-0.09967873
102	0x3d94d713	0.07267585
103	0xbde52d2d	-0.11190257
104	0xbccc8f42	-0.024970654
105	0xbd441e17	-0.04788026
106	0xbd7af604	-0.061269775
107	0xbcd9bde2	-0.026579801
108	0xbe09325a	-0.13398114
109	0x3dc3b22b	0.09555467
110	0xbdb1ab95	-0.08675305
111	0x3cd04729	0.025424557
112	0xbdd5f1c8	-0.10446507
113	0xbde6cefb	-0.11269947
114	0x3d342058	0.043976158
115	0xbdf70bfe	-0.12062834
116	0xbd0b3dfa	-0.033994652
117	0x3d995889	0.0748759
118	0x3d9c2c1b	0.076256
119	0x3db884f0	0.09009731
120	0xbcccf57d	-0.025019402
121	0xbd8a268c	-0.067456335
122	0x3cca1290	0.024667054
123	0xbdbef315	-0.09323708
124	0xbda62b37	-0.08113711
125	0x3dbeb3fe	0.093116745
126	0xbdcf5594	-0.101237446
127	0x3daca1e6	0.08429317
128	0x3d3b7767	0.045768168
129	0x3d3e3950	0.046441376
130	0x3d9d44f7	0.076791696
131	0x3d81dd7e	0.063410744
132	0x3e068a43	0.1313868
133	0xbe10939c	-0.14118809
134	0x3ddbe0a0	0.10736203
135	0x3dd59ef9	0.10430712
136	0xbdef4377	-0.1168279
137	0x3ddb3550	0.10703528
138	0x3dc1cb6e	0.09462629
139	0x3d844b0d	0.06459627
140	0xbd7f4920	-0.062325597
141	0x3dc22005	0.094787635
142	0xbddf80c2	-0.109132305
143	0xbe11d911	-0.1424296
144	0x3df93e3f	0.121700756
145	0x3d10d6e8	0.0353612
146	0xbd237569	-0.039906893
147	0x3c99fea8	0.018798187
148	0x3c73c439	0.014878326
149	0x3de6fd1d	0.11278746
150	0xbd212974	-0.039346173
151	0x3d3e296f	0.046426233
152	0x3d6bf1ba	0.057603575
153	0x3ce0b50a	0.027430076
154	0x3d69c246	0.05707004
155	0xbdcb1ed5	-0.0991799
156	0x3c8da1ec	0.017289124
157	0xbe076758	-0.13223016
158	0x3e165cdf	0.14683865
159	0xbd15314a	-0.03642396
160	0xbdcc53e6	-0.0997694
161	0x3d69fd29	0.057126198
162	0x3e154071	0.14575364
163	0xbd9cf3a1	-0.07663656
164	0xbe1231f7	-0.14276873
165	0x3d94957b	0.07255074
166	0xbc28f9c0	-0.010313451
167	0x3b09a71a	0.0021004141
168	0x3d96ebfc	0.07369229
169	0xbcc3fd8f	-0.023924617
170	0x3da70591	0.081553586
171	0x3deabc35	0.11461679
172	0x3da5cd41	0.0809579
173	0xbc77be4c	-0.015121054
174	0x3de60ed5	0.11233298
175	0xbe0a6a9d	-0.13517232
176	0x3dd1c371	0.102423556
177	0x3d306e1d	0.043073762
178	0xbd9c9687	-0.07645898
179	0x3d2e87da	0.042610027
180	0xbdad3a67	-0.08458405
181	0xbd8dc671	-0.06922615
182	0xbdab2a8b	-0.08357724
183	0x3d3e38ec	0.046441004
184	0xbe0e0d6d	-0.13872309
185	0x3d8a2c17	0.06746691
186	0xbdbae285	-0.091252364
187	0xbdad5e81	-0.08465291
188	0x3e02ed2f	0.12785791
189	0xbdb3a5d1	-0.08771861
190	0x3c98f17d	0.018669838
191	0x3d949c4b	0.07256373
192	0x3caed620	0.021342337
193	0x3e06d370	0.13166595
194	0xbd13cb0f	-0.036082324
195	0x3dd9529d	0.1061146
196	0xbd5dccd8	-0.054150432
197	0x3d7a853e	0.061162226
198	0x3d4434fb	0.04790209
199	0x3d37a6b5	0.04483672
200	0xbbb41f12	-0.005496868
201	0x3e0ed9ef	0.13950323
202	0xbcd53f2c	-0.0260311
203	0x3dae698e	0.08516227
204	0xbdf79212	-0.120884076
205	0x3d8024d3	0.06257024
206	0x3dddc908	0.10829359
207	0x3d8e644c	0.06952724
208	0xbdb197d7	-0.08671539
209	0x3ce4538f	0.027871875
210	0x3da9efd8	0.082977
211	0xbde436d4	-0.1114327
212	0x3c0688c3	0.0082113175
213	0xbd1d20ac	-0.038361236
214	0xbdddc53a	-0.108286336
215	0x3dc7e8f9	0.09761233
216	0xbddb0fa6	-0.10696344
217	0xbcf0c896	-0.029392522
218	0xbdf240c6	-0.11828761
219	0xbd734eef	-0.05940145
220	0x3de04b31	0.109518416
221	0xbdc075d2	-0.093974724
222	0xbdc2d0d1	-0.09512485
223	0xbd6c3937	-0.05767175
224	0xbd862c60	-0.065514326
225	0xbd92756e	-0.07151304
226	0x3de5b677	0.11216443
227	0xbcde5d3c	-0.027144067
228	0xbdad9da0	-0.0847733
229	0xbe06ed19	-0.13176383
230	0xbdeed945	-0.116625346
231	0x3d96daf0	0.07365978
232	0xbd9632c0	-0.073338985
233	0xbdb38415	-0.08765427
234	0xbd1ec03f	-0.03875756
235	0xbd0a8474	-0.033817723
236	0x3d4c2e13	0.049848627
237	0xbd824963	-0.06361654
238	0x3c2721f4	0.010200966
239	0x3db9a2fc	0.0906429
240	0x3dee9b6d	0.11650739
241	0xbce4572c	-0.027873598
242	0x3c9d6434	0.01921282
243	0x3cfeafee	0.03108975
244	0x3de3fc8f	0.11132156
245	0x3de05991	0.109545834
246	0x3d9ebf67	0.07751351
247	0x3d15fe02	0.036619194
248	0xbdd06825	-0.10176114
249	0xbdea76a2	-0.11448409
250	0x3c8fc7ca	0.017551322
251	0xbd910a38	-0.07082027
252	0xbdd85d19	-0.10564632
253	0x3dc5958d	0.09647665
254	0xbddacafb	-0.10683247
255	0xbc77e271	-0.015129671

lstm.weight_hh_l1 f4 [200, 50]
0	0x3b77786f	0.0037760993
1	0xbdb90692	-0.09034456
2	0xbc945880	-0.018108606
3	0x3cf6120b	0.0300379
4	0x3dd0e8ec	0.10200676
5	0xbe006595	-0.1253875
6	0xbe019fe4	-0.1265865
7	0xbcf4ff90	-0.029907018
8	0x3d1082b5	0.035280902
9	0xbd6cc15e	-0.057801597
10	0x3df81126	0.12112646
11	0xbbc950a8	-0.006143648
12	0x3e00c05c	0.1257338
13	0xbd35fd95	-0.044431288
14	0x3dc76d05	0.09737591
15	0x3d10520b	0.035234492
16	0xbdad28c7	-0.08455043
17	0xbdedc19b	-0.11609193
18	0x3de21356	0.11038844
19	0xbe07df9f	-0.13268898
20	0xbbb0fb44	-0.005401047
21	0xbd7bf1f5	-0.061510045
22	0x3d2c1ccb	0.042019647
23	0xbc4a150b	-0.012334119
24	0xbd997bff	-0.074943535
25	0x3d9b13e5	0.07572154
26	0xbc42b11a	-0.011883045
27	0x3d040f31	0.03224105
28	0xbd942d83	-0.07235243
29	0xbdd444cc	-0.103646845
30	0xbd86cb4c	-0.065817446
31	0xbd959315	-0.07303444
32	0x3ba1b37c	0.0049347263
33	0x3dab340d	0.08359537
34	0xbe0018d8	-0.12509477
35	0x3dbe3de6	0.0928915
36	0x3d1a96fb	0.037741642
37	0x3e027bb3	0.127425
38	0x3bada786	0.0052995114
39	0xbafabb77	-0.0019129355
40	0xbd4df7dd	-0.05028521
41	0x3cc43585	0.023951301
42	0x3db82251	0.0899092
43	0x3e0028af	0.1251552
44	0x3d886d94	0.06661525
45	0xbd263135	-0.04057427
46	0xbe0116f7	-0.12606417
47	0xbe09c898	-0.13455427
48	0x3dfcfc2c	0.123527855
49	0xbcbadafc	-0.022809498
50	0x3e036f80	0.12835503
51	0x3dae64ac	0.085152954
52	0xbd30af2b	-0.043135803
53	0x3ddb8abf	0.10719823
54	0x3d20ff0d	0.039305735
55	0xbd4d5b37	-0.050135817
56	0xbc71a3a9	-0.014748492
57	0xbc0c1015	-0.008548756
58	0xbd9f89bc	-0.077899426
59	0x3c488645	0.012239044
60	0xbde2fbeb	-0.11083206
61	0x3dee85ed	0.11646638
62	0x3d8b5747	0.06803756
63	0xbddbd365	-0.1073368
64	0x3c627d21	0.013823778
65	0x3df0c3f0	0.11756122
66	0xbd02d509	-0.031941447
67	0x3da3cceb	0.079980694
68	0xbd7f02bd	-0.06225847
69	0xbd8ffbd8	-0.07030457
70	0xbd09f4dd	-0.033680785
71	0xbd9c26fc	-0.07624623
72	0x3df4e816	0.119583294
73	0x3dc0cbe7	0.09413891
74	0x3bd69b49	0.006549273
75	0xbd33462e	-0.0437681
76	0x3dae6437	0.08515208
77	0x3e01e228	0.12683928
78	0x3e17fb80	0.14842033
79	0xbd74d873	-0.059776735
80	0xbd14711d	-0.036240686
81	0x3dd8a317	0.10577982
82	0xbda2dafb	-0.079519235
83	0x3c36babe	0.011152921
84	0xbd91b828	-0.07115203
85	0x3d9947cd	0.07484398
86	0x3d74c837	0.059761252
87	0xbc3eba3a	-0.01164108
88	0x3dc3598e	0.095385656
89	0x3deb8a53	0.115009926
90	0xbd45a01b	-0.04824839
91	0x3da82ba2	0.08211447
92	0xbca9187b	-0.020641556
93	0x3d74dbfc	0.059780106
94	0x3d75a74d	0.059974004
95	0x3dd63911	0.10460103
96	0x3cc54688	0.024081483
97	0xbda45f30	-0.08025968
98	0xbdbf93fd	-0.093543984
99	0xbc279281	-0.0102278
100	0xbdb4ffc7	-0.08837848
101	0x3df970fe	0.12179755
102	0xbd8157ee	-0.063155994
103	0x3c8d1350	0.017221123
104	0xbd84d406	-0.06485753
105	0x3d7a6e5f	0.061140414
106	0x3df68879	0.12037749
107	0x3d6f8164	0.058473006
108	0xbd86a601	-0.065746315
109	0x3d957242	0.072971836
110	0xbd7a752e	-0.061146908
111	0x3e032fb2	0.12811163
112	0x3d2b1e40	0.041776896
113	0x3d87322b	0.06601366
114	0x3d77f1ec	0.06053345
115	0x3dd89a24	0.10576275
116	0x3cb55668	0.022135928
117	0x3e095204	0.13410193
118	0x3ddc1761	0.10746647
119	0x3cc8aff1	0.024497958
120	0xbdf5292f	-0.11970746
121	0xbd90b288	-0.07065302
122	0x3dc15b56	0.09441249
123	0x3dd6d6f2	0.10490216
124	0x3d34e0e3	0.04415978
125	0xbab34382	-0.0013676735
126	0x3e0cc50c	0.13747042
127	0x3e08ca54	0.13358432
128	0x3d29506d	0.041336466
129	0x3e062b73	0.13102512
130	0xbdd6014f	-0.10449468
131	0x3ca55e66	0.020186614
132	0x3dd66f1e	0.10470413
133	0xbca28d87	-0.019842876
134	0x3e053e81	0.13012125
135	0xbd823b4e	-0.06358968
136	0x3d85a734	0.06526032
137	0x3dc22dd0	0.09481394
138	0x3dbdde4b	0.09270915
139	0x3b8e0709	0.0043343347
140	0x3d06c89d	0.032906163
141	0xbde24048	-0.11047417
142	0x3dd7fabc	0.10545871
143	0xbb917ca4	-0.004439907
144	0xbe090527	-0.13380872
145	0xbd71044b	-0.058841985
146	0xbddcfcec	-0.107904285
147	0xbd17ac84	-0.037029758
148	0x3cd580b2	0.026062343
149	0x3cfd7bb0	0.030942768
150	0xbd51d415	-0.051227648
151	0xbcafb4b0	-0.021448463
152	0x3d71b6b3	0.059012126
153	0x3d7a8d03	0.061169636
154	0xbdb006e5	-0.08595065
155	0x3d45d373	0.048297357
156	0x3bdad8b6	0.006678666
157	0x3d10b5bf	0.035329577
158	0x3e136d9d	0.14397283
159	0xbe13c4dc	-0.14430565
160	0xbdeb5a33	-0.114918135
161	0xbd7db0db	-0.06193624
162	0xbddea085	-0.108704604
163	0xbe0365b0	-0.1283176
164	0x3da51b3a	0.08061834
165	0xbd19e30f	-0.037570056
166	0x3da2a007	0.07940679
167	0x3dfb96ba	0.12284608
168	0x3dbddc53	0.09270539
169	0x3dcde88c	0.100541204
170	0xbd718c52	-0.05897171
171	0xbbb5e8b2	-0.005551421
172	0xbc7e7f8a	-0.015533337
173	0x3dd211ba	0.10257287
174	0xbd1c4b5d	-0.03815781
175	0x3de13802	0.10997011
176	0xbdca634e	-0.09882222
177	0xbd3bcc34	-0.04584904
178	0x3ca3e397	0.020005984
179	0x3b3f6301	0.0029203298
180	0x3d24699d	0.040139783
181	0xbe0151ed	-0.12628908
182	0x3c76efac	0.015071791
183	0x3d21e734	0.039527133
184	0xbdd92af5	-0.106038965
185	0x3e0f907a	0.14019957
186	0x3d225cc0	0.039639235
187	0xbd1aee08	-0.03782466
188	0x3db4bb47	0.08824783
189	0xbde555a1	-0.11197973
190	0xbd101890	-0.035179675
191	0x3dc86168	0.09784204
192	0xbd8a9b87	-0.06767946
193	0x3d1ea09a	0.03872738
194	0x3d2de78b	0.042457145
195	0xbdfd4d1f	-0.12368225
196	0x3d028705	0.031867046
197	0xbdc08b16	-0.094015285
198	0xbcc6caf6	-0.024266701
199	0xbc704279	-0.014664286
200	0x3c8a5305	0.01688529
201	0xbe00e29a	-0.12586442
202	0xbd8691a1	-0.06570745
203	0xbdaadc2a	-0.08342774
204	0xbcb9483a	-0.022617448
205	0x3e02f275	0.12787803
206	0xbd06829c	-0.032839403
207	0x3d46ab8d	0.048503447
208	0x3e1015e8	0.14070857
209	0xbb8bb1ef	-0.0042631547
210	0xbdf6d62d	-0.120525695
211	0x3cd682db	0.026185444
212	0xbaadc362	-0.0013257081
213	0xbd5ce7f2	-0.053932138
214	0x3bc21c87	0.005923811
215	0xbe118fec	-0.14215058
216	0xbc9e0f6b	-0.019294461
217	0xbd6054ce	-0.054768376
218	0xbd2903ef	-0.041263517
219	0x3e0a829d	0.13526388
220	0xbda27354	-0.07932153
221	0x3dbc02c5	0.09180216
222	0xbda8f713	-0.08250251
223	0x3d774276	0.060366116
224	0x3d5262dc	0.05136381
225	0xbdfbce5f	-0.122952215
226	0x3d968dd3	0.073512696
227	0x3e0bbd9b	0.13646547
228	0x3d99545e	0.07486795
229	0xbd819276	-0.06326763
230	0xbdc85bad	-0.09783111
231	0x3e06a06e	0.13147137
232	0xbde546cf	-0.11195146
233	0xbb9e84ed	-0.0048376233
234	0x3e14e0c6	0.1453887
235	0x3cfeead0	0.031117827
236	0xbc26504b	-0.010150979
237	0xbd327e91	-0.043577734
238	0xbdd4a948	-0.1038385
239	0x3d86845c	0.06568214
240	0xbcdf14f1	-0.027231665
241	0x3cf641f7	0.030060751
242	0x3cac7f5c	0.021056823
243	0xbd39f108	-0.04539588
244	0x3c93943e	0.018015023
245	0xbd872531	-0.065988906
246	0xbc07cd75	-0.008288731
247	0x3dfc0224	0.12305096
248	0xbdafbdbb	-0.0858111
249	0xbcf48027	-0.029846264
250	0x37ec6a40	2.8182869e-05
251	0xbde58c1f	-0.112083666
252	0x3cd71385	0.026254425
253	0x3d9ca76b	0.0764912
254	0x3d030205	0.031984348
255	0x3d6d3226	0.057909153

lstm.bias_ih_l1 f4 [200]
0	0xbdca1271	-0.09866799
1	0xbdaffc69	-0.08593065
2	0xbc4a6a45	-0.012354438
3	0xbc9fa4d2	-0.019487772
4	0x3e0d4ba9	0.13798393
5	0xbd80d880	-0.06291294
6	0x3e18c738	0.14919746
7	0x3d808bdd	0.06276677
8	0x3d1d9d12	0.038479872
9	0xbd577a69	-0.052606974
10	0x3d5bd123	0.053666245
11	0x3b11e68d	0.0022262663
12	0x3d5d7cea	0.054074205
13	0xbdd2b868	-0.10289079
14	0x3dc4ffb5	0.09619085
15	0xbdb7c15d	-0.08972428
16	0xbdb8116d	-0.08987699
17	0xbc5b0933	-0.0133688925
18	0xbca86c39	-0.020559417
19	0x3dc17bc7	0.09447437
20	0x3dc48cb1	0.09597147
21	0xbd965c9e	-0.07341884
22	0x3d8f06f2	0.069837466
23	0xbd319be4	-0.04336156
24	0x3decfb36	0.11571352
25	0xbd21adf7	-0.039472546
26	0xbde141d1	-0.109988816
27	0xbdf4e4a5	-0.11957673
28	0xbdd05cad	-0.101739265
29	0xbe019aa7	-0.12656651
30	0xbdd6c9e6	-0.10487728
31	0x3ddbe95a	0.10737868
32	0xbe159844	-0.14608866
33	0xbdd35a59	-0.10319967
34	0xbc4cbbb2	-0.012495922
35	0x3d7aa871	0.061195794
36	0xbd838333	-0.06421509
37	0xbd8d27a4	-0.068923265
38	0xbd541d86	-0.05178597
39	0x3dc4dd97	0.096125774
40	0xbcc53b04	-0.024075992
41	0x3dba49a3	0.09096076
42	0xbc5cd6b7	-0.013478926
43	0xbdd73f56	-0.10510127
44	0x3df1dccd	0.118096925
45	0xbdab80d3	-0.08374181
46	0xbd2cff33	-0.042235564
47	0x3d36bf44	0.044616
48	0xbe006016	-0.12536654
49	0x3db164c4	0.08661798
50	0x3de0b14e	0.10971318
51	0xbe0639bf	-0.13107966
52	0x3d969376	0.07352345
53	0x3dd2fe4c	0.103024095
54	0x3d25dc62	0.040493377
55	0x3dfce7de	0.12348913
56	0xbd58b7d9	-0.052909706
57	0x3d0adbb4	0.03390093
58	0x3de0bbb6	0.10973303
59	0xbdaeb2ec	-0.085302204
60	0xbdb62779	-0.088942476
61	0x3df2b502	0.11850931
62	0x3db364ab	0.08759435
63	0x3cd0b716	0.025477927
64	0xbe06db39	-0.13169564
65	0x3ca4b9a0	0.020108044
66	0xbd4c193c	-0.049828753
67	0x3cd1d6f1	0.025615187
68	0x3de714f9	0.11283297
69	0xbd9b4e21	-0.07583261
70	0xbdf0d862	-0.11760022
71	0x3dbb1e3a	0.09136625
72	0x3d0cff65	0.03442325
73	0x3dbed639	0.093182035
74	0xbdd2cdc6	-0.102931544
75	0x3d8b9271	0.06815041
76	0xbd803a81	-0.06261159
77	0x3ddb926e	0.107212886
78	0xbc4c4a83	-0.012468937
79	0x3df24fd8	0.11831635
80	0xbde7f022	-0.113250986
81	0xbddb6e6e	-0.10714422
82	0xbe0180a6	-0.12646732
83	0xbdc5a906	-0.09651379
84	0x3d123109	0.035691295
85	0x3d6eebf1	0.05833048
86	0x3d94adc9	0.072597094
87	0x3d3597f5	0.04433437
88	0xbdd2f1d8	-0.10300034
89	0xbd831431	-0.064003356
90	0xbd253fef	-0.040344175
91	0x3d81408e	0.06311141
92	0x3e185d3b	0.14879315
93	0xbd8ff33e	-0.07028817
94	0x3db15392	0.08658518
95	0xbda3b5c4	-0.079936534
96	0xbd757d59	-0.059933994
97	0xbdb2d5c9	-0.087321825
98	0xbdfb4241	-0.12268496
99	0xbd06cd0a	-0.032910384
100	0x3b48e4a1	0.0030653852
101	0x3d4799d2	0.04873068
102	0x3e04acee	0.12956592
103	0xbd774b5e	-0.06037461
104	0x3de444dc	0.111459464
105	0xbd95891b	-0.073015414
106	0xbe00c32c	-0.12574452
107	0xbcd1051c	-0.025515132
108	0x3b8485d2	0.004044273
109	0xbdaedb94	-0.08537975
110	0x3c8c592c	0.017132364
111	0xbdb026d2	-0.086011544
112	0x3d147f4f	0.036254223
113	0xbbb82d79	-0.005620655
114	0xbe021df5	-0.1270674
115	0xbe04c3cc	-0.12965316
116	0x3d683f27	0.05670085
117	0x3d80b318	0.062841594
118	0x3cf83db1	0.030302854
119	0xbdf4dd2a	-0.11956246
120	0x3d6e69c1	0.058206324
121	0xbe047d6c	-0.1293847
122	0xbd56fdef	-0.052488264
123	0xbcb23c43	-0.02175725
124	0x3c7da74c	0.015481781
125	0x3e122cf5	0.14274962
126	0xbdd62659	-0.10456533
127	0xbb90ccc0	-0.0044189394
128	0x3daf778a	0.08567722
129	0x3d872429	0.06598694
130	0x3d92bb04	0.07164577
131	0x39ae2850	0.000332179
132	0x3b595c5c	0.0033166623
133	0x3dcac9a4	0.09901741
134	0x3c8002ee	0.015626397
135	0xbc6c9224	-0.0144391395
136	0xbe0179b0	-0.12644076
137	0x3c5f15a9	0.013616004
138	0x3de961c4	0.113956004
139	0x3cd579ad	0.026058996
140	0x3df3eb33	0.11910095
141	0xbd9c57fb	-0.076339684
142	0x3dfd8c99	0.123803325
143	0x3d53e7b4	0.05173464
144	0xbe02c534	-0.1277054
145	0xbdefe584	-0.117136985
146	0xbddf25a8	-0.10895854
147	0xbdaa4471	-0.083138354
148	0x3de0a129	0.10968239
149	0x3ded81c7	0.11597019
150	0x3ce035bd	0.027369374
151	0x3e0a56d0	0.13509679
152	0xbc9f9155	-0.01947848
153	0x3de57a2d	0.11204944
154	0x3c7799a8	0.015112318
155	0x3d9d39d8	0.076770484
156	0x3e0f5a37	0.13999258
157	0x3df13567	0.11777764
158	0xbe161164	-0.14655071
159	0xbb8c1fd6	-0.004276256
160	0x3d8468c4	0.06465295
161	0xbde9d11e	-0.11416839
162	0x3e0704b0	0.13185382
163	0xbdc9720f	-0.09836208
164	0x3bc8e486	0.0061307577
165	0xbdb3fb6f	-0.087881915
166	0xbcfb82b4	-0.030701973
167	0x3bac3f47	0.0052565667
168	0x3d142628	0.0361692
169	0x3cac73c6	0.021051299
170	0x3d83a0e4	0.06427172
171	0x3c1516d5	0.009099682
172	0x3dbe75a1	0.0929978
173	0xbd15e1aa	-0.036592163
174	0xbde9fb85	-0.11424927
175	0x3df75676	0.12077038
176	0xbdded003	-0.10879519
177	0xbd7c9e54	-0.06167443
178	0x3df241b8	0.11828941
179	0xbdc4d20b	-0.09610375
180	0xbdaa80d5	-0.08325354
181	0x3cf49fe1	0.029861392
182	0xbe10edf6	-0.14153275
183	0xbda02862	-0.078202024
184	0xbd8e4c26	-0.06948118
185	0xbc530c70	-0.012881383
186	0x3d99799e	0.074939
187	0x3d490ecf	0.04908639
188	0x3d733be9	0.059383307
189	0xbdda2658	-0.10651845
190	0x3ba75b85	0.0051073455
191	0x3d3e68b7	0.046486583
192	0xbd97aba4	-0.07405785
193	0x3da9c999	0.08290405
194	0xbdbc0121	-0.09179903
195	0x3d28c4ab	0.041203182
196	0x3d4a18e0	0.04934013
197	0x3dc55146	0.09634642
198	0x3c3c6f88	0.0115012005
199	0x3d7d88df	0.06189811

lstm.bias_hh_l1 f4 [200]
0	0x3d93c0a5	0.072144784
1	0x3cfd072f	0.030887214
2	0xbd69c013	-0.057067942
3	0xbe003154	-0.12518817
4	0xbcbad1ad	-0.02280506
5	0x3e0133fb	0.12617485
6	0x3de1263c	0.10993621
7	0xbcd8a005	-0.02644349
8	0xbb62c4d9	-0.0034602194
9	0x3d41365f	0.047170993
10	0xbe06099d	-0.13089605
11	0x3d5c4050	0.05377227
12	0xbd5f9ae6	-0.054591082
13	0x3da67eb4	0.081296355
14	0x3da223b1	0.07916964
15	0x3d44fb56	0.048091255
16	0xbcf91e41	-0.030409934
17	0xbd503180	-0.050828457
18	0xbced16d4	-0.02894155
19	0xbdb277d9	-0.087142654
20	0x3cf0524b	0.029336115
21	0xbd5bb3d5	-0.053638298
22	0x3cfb50f5	0.030678252
23	0xbdd4beb5	-0.10387937
24	0x3dba85f8	0.09107584
25	0xbd2b8e79	-0.04188392
26	0xbdcbe01d	-0.099548556
27	0xbddb397a	-0.10704322
28	0xbdba7d00	-0.09105873
29	0x3e0ab92f	0.13547204
30	0x3bab9362	0.0052360753
31	0xbde6dbab	-0.11272367
32	0x3cdc4216	0.026886981
33	0x3d8ae067	0.067810826
34	0xbdd97629	-0.106182404
35	0x3cd7cc01	0.026342394
36	0x3e0577b8	0.1303395
37	0x3d3a18c2	0.045433767
38	0x3e0ba548	0.13637269
39	0x3db55239	0.08853573
40	0x3df8149a	0.121133044
41	0xbbff50f7	-0.007791634
42	0x3dc80c1d	0.097679354
43	0xbce03ed5	-0.02737371
44	0xbd1452a9	-0.036211643
45	0x3e0ecb5f	0.13944767
46	0x3d8e5a12	0.06950773
47	0xbd5af937	-0.053460326
48	0xbe05df85	-0.13073547
49	0x3d7d53c4	0.061847463
50	0x3d8926d8	0.06696862
51	0xbcaa67f7	-0.020801527
52	0x3da7d75e	0.08195375
53	0x3d6c75e4	0.057729617
54	0x3c9e1981	0.01929927
55	0xbdbee2a2	-0.093205705
56	0x3cb39a1b	0.02192407
57	0xbe012e8b	-0.12615411
58	0xbdf68cb1	-0.120385535
59	0x3df45af9	0.11931414
60	0xbd4fce57	-0.05073389
61	0x3dec5be2	0.11540963
62	0x3d8eaa9b	0.06966134
63	0xbdd935ca	-0.106059626
64	0x3e0f6915	0.1400493
65	0xb9772b18	-0.0002357181
66	0x3d1c79eb	0.038202208
67	0xbde71294	-0.1128284
68	0xbd510ac4	-0.051035658
69	0x3dee2c0e	0.116294965
70	0xbd6e12d4	-0.058123425
71	0x3da0c04c	0.07849178
72	0xbdc70039	-0.09716839
73	0xbd14a1e3	-0.0362872
74	0x3d4c3859	0.049858425
75	0xbdbb9154	-0.091585785
76	0xbc0d8ad7	-0.008639059
77	0xbd6744f3	-0.05646224
78	0xbdeebcb4	-0.11657086
79	0x3d0ade82	0.033903606
80	0x3d956bc1	0.07295943
81	0xbd4359ed	-0.04769318
82	0xbd6fe7d9	-0.058570717
83	0x3bcbd410	0.006220348
84	0x3dafb3ac	0.085791916
85	0xbc4b1773	-0.012395727
86	0x3d333c3c	0.043758616
87	0xbbfddc39	-0.0077472
88	0x3d8bf582	0.06833936
89	0xbdadbb98	-0.08483046
90	0x3cbd2d2d	0.02309283
91	0xbd262cd3	-0.04057009
92	0x3dbfbcde	0.093621954
93	0x3c42190a	0.01184679
94	0xbdc50fbd	-0.096221425
95	0xbdaa2887	-0.08308511
96	0x3d8b4c87	0.06801706
97	0xbc178dae	-0.009250088
98	0x3e08dd99	0.13365783
99	0xbde92ce3	-0.113855146
100	0x3c7f16db	0.015569414
101	0x3c4b4b5e	0.012408106
102	0xbced721b	-0.028985074
103	0xbc9bef87	-0.019035114
104	0x3de9b417	0.114113025
105	0x3db64f96	0.089018986
106	0xbcde2842	-0.027118806
107	0xbdae6c5d	-0.085167624
108	0x3dc10fca	0.0942684
109	0x3d4b9dfd	0.049711216
110	0x3e185e12	0.14879635
111	0x3e09d1d1	0.13458945
112	0x3dda8372	0.106696025
113	0x3da90a93	0.0825397
114	0xbdd53ba4	-0.10411766
115	0x3bd712de	0.0065635284
116	0xbdd48e0f	-0.10378658
117	0xbe035fa1	-0.12829448
118	0x3d994fbe	0.07485913
119	0x3db5748c	0.0886012
120	0x3d0af390	0.033923686
121	0x3c2a2325	0.010384356
122	0xbdcbeba2	-0.09957053
123	0xbdcdc7f1	-0.100479014
124	0xbdb4aded	-0.08822236
125	0xbd845d5a	-0.06463118
126	0x3d0d2742	0.034461267
127	0xbcbf5562	-0.023356143
128	0x3d6e667a	0.058203198
129	0xbd13d0bb	-0.036087733
130	0x3da44cd3	0.080224656
131	0xbd93be43	-0.07214024
132	0xbd1f3487	-0.038868453
133	0xbdf1483d	-0.117813565
134	0x3d542afe	0.051798813
135	0x3d27888a	0.0409017
136	0x3d5ed5be	0.05440306
137	0x3e0243b8	0.12721145
138	0xbe0f2b71	-0.13981415
139	0xbe1a309e	-0.15057608
140	0x3c1e5ae6	0.009665227
141	0x3e012be9	0.12614407
142	0x3a4658f7	0.00075663574
143	0x3d6a0554	0.057133988
144	0xbc8e5ef4	-0.017379262
145	0xbe0c9924	-0.13730294
146	0xbd14b420	-0.036304593
147	0x3dc4c6f4	0.0960826
148	0xbdb44d97	-0.088038616
149	0x3dbdcaab	0.092671715
150	0x3d9f3b96	0.07775037
151	0xbdd72e43	-0.105068706
152	0xbd0d1d74	-0.034451917
153	0xbdfe8619	-0.12427921
154	0x3de2d103	0.11075022
155	0xbbbc1544	-0.0057398397
156	0x3c1665ca	0.009179542
157	0x3d82edf7	0.063930444
158	0xbc61fe90	-0.013793603
159	0x3d7f347a	0.062305905
160	0x3de252c9	0.11050946
161	0xbd1a2b26	-0.037638806
162	0x3de5ae0e	0.11214839
163	0xbbe0c5be	-0.00685951
164	0xbdaada4f	-0.0834242
165	0xbcdc8796	-0.026920121
166	0xbe10f6ac	-0.14156598
167	0xbd35a99a	-0.044351198
168	0xbd2c8c13	-0.042125773
169	0xbdff9bf6	-0.12480919
170	0xbd96fd45	-0.07372526
171	0x3b6317ea	0.0034651705
172	0x3e01968e	0.12655088
173	0xbd1491f3	-0.036272
174	0xbdd0d248	-0.10196358
175	0xbd95a98b	-0.073077284
176	0x3d95a397	0.07306593
177	0xbdcf429f	-0.10120129
178	0x3e040d62	0.1289573
179	0xbca9f261	-0.020745458
180	0xbc0c3884	-0.008558396
181	0xbd427b57	-0.047480907
182	0x3db8bf12	0.09020819
183	0x3da7b7e7	0.081893735
184	0x3de8dee6	0.113706395
185	0xbe02a5de	-0.12758586
186	0x3dbfb043	0.09359791
187	0xbd4112c2	-0.04713703
188	0x3ded4fb4	0.11587468
189	0x3e081c3d	0.13292022
190	0xbe07c615	-0.13259156
191	0x3e029f8a	0.12756172
192	0x3d5dedde	0.054181926
193	0xbdeacd7b	-0.114649735
194	0xbe09c032	-0.13452223
195	0x3e1638d5	0.14670117
196	0x3dee4f20	0.11636186
197	0xbd58079b	-0.05274163
198	0xbd9321bf	-0.07184171
199	0xbdb2c9e1	-0.087299116
